Week4_Notebooks/my_mnist_model.pt (torch, 440939 bytes, 6 tensors)

weight f4 [128, 784]
00000000: 68e3 70bc 2918 97bc df2f 093d 5008 013b
00000010: d7a5 393c 4fd9 10bc e671 263d 0d6f c9bc
00000020: 5047 1f3d 6be7 8e39 3915 8f3c c55f c2bb
00000030: 319b 0e3c a571 1b3b fba9 43bc ae5f 57bc
00000040: 8442 093d 27d4 1d3d 7614 28bb e6d5 0f3c
00000050: 382c dcbb 1152 02bc b2ab debb f915 9ebc
00000060: a168 c4bc 078d a1bc f315 193d ff80 2a3b
00000070: c439 79bc 8bb7 c23c 19cd 963a d773 1b3c
00000080: 9051 dbba d166 d1bc 6d3c a53c df5c 9cbc
00000090: 4bac 303d 86bd c1bc 50cb 93bb 4553 10bc
000000a0: ef3e c9bc c3b6 5f3c faef 043d 0e0e f73c
000000b0: 6f2a 80bc 0a72 d93c b182 31bc 844f 1abc
000000c0: c5d5 b43a 5ffb 9dbc 3609 f8bb b47f 283c
000000d0: b224 ac3c 842b d3ba d4b9 b9bc 7d35 cf3c
000000e0: 9d3a 163c 5356 263b 3301 af3c d827 123c
000000f0: 87e5 8a3b ae52 e2bb 5d3d 023d ff12 cbbb
00000100: c9d6 d0bb d974 9e3c 3a61 0dbc cfee f23c
00000110: 6e06 ac3c 0066 bbbb 6e4b b23c 41c8 03bc
00000120: 6a48 3cbc d39c 60bc cbd3 1b3d 47e3 c33b
00000130: fa9c 87bb 43e1 753c 8342 b8bb 1ab8 0b3d
00000140: 2f02 c5bb bfb1 1fbc 14ae 44bc 1cfe 263d
00000150: 58f3 2fbc 2961 7fbc 7e86 483c d074 713c
00000160: 83fa df3b 03b9 c23c f92d db3c bed5 9d3c
00000170: c83d c13c 20c8 a43c 1426 cfbc ca93 f8bc
00000180: b818 19bd abe3 d93a 7dc9 fe3b 0061 07bc
00000190: 16ec 70bc 8ffe 833c 11cd 023d fd16 17bc
000001a0: 93f9 523d 1f3a d13c dc43 533c 35d5 9e3c
000001b0: bf29 d6bc 86ac 31bc 906e dd3c 65ad 65bc
000001c0: 0f62 20bc e6ee e2bc 39f4 223d 8320 143d
000001d0: e800 863c f576 f23c 3d7e 9a3b 8260 c8bb
000001e0: 8489 ecbb bf06 e7bc 9b43 17bd 02ef 80bd
000001f0: 535b efbc e872 87b9 8f76 4ebb 99cf babc
00000200: 331f aabc b9a5 d33b de34 99bc e8ca 583d
00000210: c953 2f3d ac4e 9b3d 1739 e83c 919b 453d
00000220: 16ee 923c 83cd 09bc f1d6 dbbc d1d5 9f3c
00000230: ab35 65bb 60f4 3cbc 6ffe f23c 66c5 0a3d
00000240: f425 9ebc 868b 8e3c 9c67 e9bc 9132 49bc
00000250: 5f7d 29bd 5e70 85bd ea0b d8bc b81f 16bd
00000260: aef1 9b3b 5f41 5c3b 89f9 f03b 054b 70bc
00000270: b379 c4bc 73f2 95bb 8409 1fbd 7913 4d3c
00000280: 6848 54bc bbb6 993c 3f64 8b3d bac4 743d
00000290: 805d 973c f3f4 173d 5a29 273d 9e6b 42bc
000002a0: 7e4e e13b 94b2 db3c 1995 d5bb c85b 32bc
000002b0: ad10 0ebc 80dd f03b a53b e5bc 6e4f a8bc
000002c0: b74e 6bbd 35f4 e2bc f723 5bbc 93cf 8cbc
000002d0: 9ac1 c03c 9447 203d 914e 293d e2d0 9abd
000002e0: 5bd8 f9bd 1dce edbd 7f06 88bd 35fd edbb
000002f0: 8fe6 1ebc c8ce 923c 8ef9 893d 1938 483d
00000300: a4ab 973d 7eb2 c53c d9d4 1fbc 2859 953a
00000310: a259 fc3c bb36 3dbc 1cb0 5abc ef08 033c
00000320: e72f 0bbd f652 16bd 64fb 46bd 780b 9ab9
00000330: b9ed 8cbd a74d 11bd e2a9 35bd 1ec1 b23c
00000340: 9fbf 863c f69e b2bc a974 6fbc 35e8 b7bd
00000350: 63f7 e2bd 796b 84bd ceb7 43bd 175b 83bd
00000360: 4a88 36bd 5eeb c0bb 64d9 44bc bc5e 9b3d
00000370: 9437 153d 83c8 f53c 06c5 b4bc b43b e9b9
00000380: d0b0 a5b8 1d69 22bc edd2 083d 5cd2 9cbc
00000390: beff 0bba 5189 22bd 92bb 87bd 6c81 8fbd
000003a0: 487a fcbc fe8f 3dbd 7dbd 94bd 75f2 a53a
000003b0: 5ab4 5b3c 91ba b8bc b9ff 43bd 38a1 9bbd
000003c0: 6c53 84bd 5a47 01bd d05d 33bb dee9 a5bc
000003d0: 68b7 0d3d 0c02 8fbc 4141 aabb 2ebe 083d
000003e0: d5f4 803d ead9 883d e02e 503c 0d70 b43c
000003f0: 6a4a 963c c66c 6c3c d92e 31bb aa77 53ba
-0.014702655 -0.018444138 0.03349292 0.0019688793 0.011331043 -0.008840873 0.040635966 -0.024589086
0.03888637 0.0002725677 0.017466174 -0.005931827 0.008703993 0.002371886 -0.011942382 -0.01314537
0.0335107 0.038532402 -0.0025646961 0.008779025 -0.0067191385 -0.0079541365 -0.00679537 -0.019297587
-0.023975672 -0.019720567 0.037374448 0.002601683 -0.015211526 0.02376916 0.0011505216 0.009488068
-0.0016732682 -0.025561722 0.020170415 -0.019087253 0.04313306 -0.023649942 -0.0045103207 -0.0088089155
-0.024566142 0.013654414 0.032455422 0.030158069 -0.015645234 0.026543636 -0.010834382 -0.009418372
0.0013796618 -0.019284902 -0.0075694574 0.010284353 0.021013591 -0.0016110991 -0.022671618 0.02529406
0.009169248 0.0025381043 0.021362877 0.008920632 0.0042387876 -0.006906829 0.0317968 -0.006197333
-0.0063732606 0.019342827 -0.008629138 0.029654888 0.02099916 -0.0057189465 0.021764483 -0.00804335
-0.011491874 -0.013709265 0.03804378 0.0059780213 -0.004138586 0.01500732 -0.005623163 0.03411112
-0.006012223 -0.009746968 -0.012004394 0.04076968 -0.01073917 -0.01558713 0.012239097 0.014737323
0.0068352832 0.023769861 0.02675532 0.01926696 0.02358903 0.020114958 -0.025286712 -0.030343909
-0.03737709 0.0016623636 0.007775484 -0.008262873 -0.014704725 0.016112594 0.031933848 -0.009221789
0.051507544 0.02554041 0.012894597 0.019388774 -0.026142953 -0.010844355 0.02703026 -0.014018391
-0.009789004 -0.027701806 0.03978369 0.036163818 0.016357854 0.029597739 0.004714756 -0.0061150203
-0.0072185416 -0.028201459 -0.036929708 -0.06295587 -0.029218351 -0.00025834818 -0.0031503772 -0.022804068
-0.02076683 0.0064589647 -0.018701967 0.05292788 0.042804513 0.07583365 0.028347535 0.048244063
0.017935794 -0.008410814 -0.02683589 0.019511135 -0.0034974616 -0.011532873 0.029662339 0.03387966
-0.019305207 0.017400514 -0.028491788 -0.012280122 -0.04137933 -0.06515573 -0.026372869 -0.036651343
0.004759035 0.00336083 0.0073539657 -0.014666324 -0.023983812 -0.0045760213 -0.038827434 0.01251685
-0.012956716 0.01876389 0.0680623 0.059757926 0.018477201 0.037098836 0.04081092 -0.011866478
0.006875812 0.026818551 -0.006518018 -0.01088614 -0.008670968 0.0073506236 -0.027982542 -0.020545688
-0.057448115 -0.027704338 -0.013375274 -0.017188823 0.023529816 0.039130762 0.041334692 -0.075593725
-0.1219947 -0.116115786 -0.06641864 -0.0072628506 -0.009698524 0.017920867 0.06737052 0.048881624
0.07405785 0.024132963 -0.009755337 0.0011394368 0.030804459 -0.011548693 -0.013347652 0.007997735
-0.03398123 -0.03670021 -0.04857959 -0.00029381714 -0.068812795 -0.035474446 -0.044351466 0.021820601
0.016448794 -0.021804314 -0.014615216 -0.08979837 -0.110823415 -0.06465811 -0.04778271 -0.064138584
-0.04456357 -0.005887433 -0.012014721 0.075864285 0.036429957 0.030002838 -0.022066604 -0.00044485705
-7.900747e-05 -0.009912756 0.03340428 -0.019143276 -0.0005340538 -0.039681736 -0.06627573 -0.07007107
-0.030820027 -0.0462799 -0.072627045 0.0012660759 0.013409698 -0.0225499 -0.047851298 -0.075991094
-0.06461224 -0.031562187 -0.002736915 -0.020253118 0.034598738 -0.01745703 -0.005195767 0.033384494
0.06296698 0.06682189 0.012706488 0.022026086 0.01834603 0.0144302305 -0.002703598 -0.00080668426

bias f4 [128]
00000000: 99ae 80bc 9314 01bc c869 39bc 5e36 983c
00000010: 3b40 fd3c da64 66bc 0ef7 6b3c 8966 5cbc
00000020: 48c2 63bb cc7b de3c bee7 143d 9eec 0d3d
00000030: 2126 abbc b40a a03c 9b8c ce3c 7995 263c
00000040: 21bd a5bb 312b 2a3b 0f51 143c 83a2 dbbc
00000050: a321 0c3d c417 143d 1e1b 11bd ef98 58bc
00000060: aaaa 063c 042c a03c 935b 10bd d023 5d3c
00000070: 895e d43c 7c15 3f3c dc79 10bd 794e 37bb
00000080: dad3 08bd 328a 96bc 6f0c 0bbd 178a acbb
00000090: ac23 7e38 7e81 0dbd fc3c 00bb ba85 86bc
000000a0: 9b3a c9bc 2a93 e33c e5ba 94bc a5a5 84ba
000000b0: 3ccd dc3c 25e0 89bc ddd0 fdbc 38d5 123c
000000c0: 03a8 76bc 3820 b93c 5500 46b7 1518 653c
000000d0: 7181 84ba 88c4 303c 4617 1fbd 6ad6 443c
000000e0: ee9b 293c 7c17 4c3b 0991 11bb cfab b3bc
000000f0: 2b2e 963a ac99 1e3c 5906 c2bc 9ea4 31bc
00000100: 2e69 ed3b be82 ccbc 9381 7c3c 6e14 5fba
00000110: 9d15 24bc b723 bbbc 20a3 4ebc 0f56 b73a
00000120: d38e 83bc 9121 003d c52f 14bc ed6b 053d
00000130: e577 2b3b 7754 a0b8 b76f 0dbd 8411 f7bc
00000140: 39e8 a2bc b258 d23c 1bc6 033d 23c4 b43c
00000150: 0054 083d 229c acb8 ab80 a2bb 59ea 7abc
00000160: d735 0a3d a5aa 13bd 0514 ddbc 2adf d2bc
00000170: 1ef4 933c 899b 343c 05c8 633c 2f50 df3c
00000180: 1c74 e73c e47b bdbb 5dc2 c3bc b3f4 a63b
00000190: 4352 013d ebc3 78bb 00f9 20bc 5530 12bc
000001a0: d22c 9338 e9f4 a2bb 40d3 e23c 6bb9 9f3c
000001b0: 57e6 01ba bf19 c43c 357b 0dbd 27fc debc
000001c0: 278b 083d 182e ed3b 5bc1 34bc d619 323d
000001d0: beea e8bc c1e4 e6bc 0e07 acbc ada2 cb3c
000001e0: 3f16 5d3c b20a cabb b7f9 543c 6b00 84bc
000001f0: e922 49bc 95c5 413b 44ca 49bc 21be 2b3c
-0.015708255 -0.00787844 -0.011316724 0.018580612 0.030914417 -0.014062131 0.014402164 -0.013452181
-0.0034753252 0.02715864 0.03635382 0.034649484 -0.020892205 0.019536354 0.02521353 0.010167473
-0.0050579463 0.0025965685 0.009052529 -0.02681089 0.034211766 0.036155477 -0.03542625 -0.013220056
0.0082194 0.019552238 -0.035243582 0.013497308 0.025923984 0.011662837 -0.035272464 -0.0027970357
-0.033405162 -0.018376444 -0.033947404 -0.005265485 6.059154e-05 -0.03454732 -0.00195676 -0.016421188
-0.024564078 0.027780134 -0.018155525 -0.0010120167 0.026953332 -0.016830513 -0.030983383 0.008961968
-0.015054706 0.02259837 -1.1801797e-05 0.013982792 -0.0010109377 0.010789044 -0.038840555 0.012014011
0.010352118 0.0031141927 -0.0022211692 -0.02193251 0.0011457851 0.009680193 -0.023684667 -0.01084247
0.0072452044 -0.024964686 0.015411752 -0.0008509819 -0.010014919 -0.022844179 -0.012612134 0.001398744
-0.016059315 0.03128201 -0.009044592 0.03257363 0.0026163992 -7.645127e-05 -0.034530368 -0.03015972
-0.019886123 0.025677059 0.03217135 0.022066182 0.033283234 -8.230681e-05 -0.004959186 -0.015314662
0.033742752 -0.03605141 -0.026987085 -0.025741179 0.01806074 0.011023411 0.013902669 0.027259914
0.028253607 -0.005782591 -0.02389639 0.0050950884 0.03157259 -0.0037958573 -0.009824991 -0.008922656
7.017855e-05 -0.004973043 0.027688622 0.019497594 -0.0004955283 0.023938058 -0.034541328 -0.027219845
0.03333583 0.007238161 -0.011032428 0.04348167 -0.028432246 -0.02818525 -0.020999458 0.024857843
0.013494073 -0.0061658258 0.01299899 -0.01611348 -0.01227639 0.002956723 -0.01231629 0.010482342

weight f4 [64, 128]
00000000: f4d5 123e 645c 85bc ff7a 4f3d bf6a dabc
00000010: a87b ff3d 55b5 403d 19a1 5a3c ca94 b13c
00000020: 3846 bf3d fd0e db3b af92 d03d 11de 1dbd
00000030: 528f ddbc 57b6 da3b 8448 9fbd ce6a fdbc
00000040: eccc a93d 2355 a13d f18b 823d 5ad4 033e
00000050: f26e f5bb 83c0 703d ddc8 293c 4e80 ca3c
00000060: 5d82 08be 4301 383e e70e 05bd 813c d0bc
00000070: 5119 cfbc 44f2 dc3c e5b1 e33c 9db1 663d
00000080: 12e5 00bd 86eb 793d dab2 53bd cc9b 6f3d
00000090: 3a85 3c3d 46cd 7e3a 8438 12bd 1206 85b9
000000a0: c300 07bd e321 723d 5cf7 4f3b d096 b43c
000000b0: f47e 833d 1160 843c 568c 0dbd 1a88 96bd
000000c0: 12e6 71b9 55da aabc 7274 2d3c 6d41 533d
000000d0: e95c 82bd de34 7bbd 332e f6bb aaa2 02be
000000e0: 688e 783c 01f8 b1bc 9d7f 033d 0e2c debd
000000f0: ea51 17bd 2325 9a3a b0b6 fb3b eeac 0dbd
00000100: 9186 bfbd 45e4 aebc 6841 3cbd 09ab f63d
00000110: 2f64 febc bb7a 193d b91d 433d dd17 bd3c
00000120: 3b28 453b 0d05 cbba f633 f5bd bd44 293d
00000130: 9217 d03b a188 a8bb 82ce 0e3d 1bcb 163c
00000140: 1af3 a6bd 7b70 ac3d fa6c 383c a621 a9bc
00000150: b0de b5bd 48e7 ebbd f126 f43b 1a01 983c
00000160: e636 92bd 0489 2f3d 4756 8c3c ca46 01bd
00000170: cac6 32be ded1 94bd 946b 7e3d c842 52bc
00000180: d140 1fbd 9892 05bd 44cc 0f3d afc6 9c3c
00000190: 07e8 8cbd 311d 573e a131 a0ba 4a1b 2dbc
000001a0: 24cc 5fbd a8e4 ae3d 931b 863d f9b2 bc3d
000001b0: 86b7 b33d c2b9 f53d ca4c d7bc 8d5b 1fbb
000001c0: 0c08 dc3d 7710 eebd 1366 053c 532e 773d
000001d0: e776 a6bd 4aa5 a83d ba99 793d 17a1 78bc
000001e0: 51ac 473c f559 d53d f8ab 02be ceb1 893d
000001f0: 6629 833c e662 f23d 358a c93d 374e d3ba
00000200: d57b 9dbd a111 6fbd 2fe3 9fbc b6bf 1fbd
00000210: 6255 993d b9fe 62bd 44b1 973d 1400 7a3d
00000220: 48ef 993d 1e00 c73c 1e34 ebbc 18cf ad3b
00000230: 8815 d4ba c0d8 3f3d d486 083b 396a aebc
00000240: 87d6 823d 74c4 ee3a 57ea c73c 18c6 13bd
00000250: 1a99 b03d 1796 abbc 1604 6fbd 88ec 57bd
00000260: ff89 cebd 0895 99bd 35d0 b2bc dd53 713c
00000270: 9cb7 05bd 04e5 353d 5b5a b4bd e221 64bd
00000280: 8ec7 babb 6c7d 06bd 47de 98bd 2044 efbb
00000290: c48d 05bd 532b af3d 859a 5a3d 6690 82ba
000002a0: c570 9c3d 1f01 ddbc 4c81 55bb 9aae 413c
000002b0: a7cc 7a3d 9f99 0e3d 6d75 6f3d e3d1 20bd
000002c0: 891c 8c3d 29d0 00be 8a16 2bbd 46bb c23c
000002d0: ef4a 53bd 036e c1bc 8c5f 983d 936a c3bc
000002e0: d018 273b df37 a0bd a063 0fbc 7328 963c
000002f0: 6c14 ae3d b826 0bbc b9cf 36bd c14b 22bd
00000300: 654b 593d 0577 79bd 79c3 5bbd 01f1 283b
00000310: aff6 8dbd 8b1a adbd 8de0 963d 97fc a4bd
00000320: d860 f73c e091 e63b 3fbf e13c aafe 85bc
00000330: c5a4 c83b f3f8 d13b 5e83 4abd f82f 1ebd
00000340: 3039 7f3d 6836 a2bd edbc 96bd ebd6 733d
00000350: c069 eabc 3d8c a93d 8c52 54bd 812c 24bd
00000360: 096b 8b3b c340 64bd a097 b23c 7fac aebd
00000370: 5939 9bbd 4e9f 933d f0f9 783d 60a0 95bd
00000380: e1f5 73bd 3719 17bd fc8f 433c f4af 563d
00000390: 5a99 93bd 9291 033d 29de a63d 0629 42bd
000003a0: 1e86 a1bd bdde 99bd 6789 25bd 86d9 72bd
000003b0: 29c9 91bd f319 b8bb d9de 7e3b d45c 583d
000003c0: 1991 b0bd ba19 233b 9212 3e3c 3528 cbbc
000003d0: 8b46 fa3c 7dd9 96bc d880 38bc e44e 513d
000003e0: 6032 d1bc 5598 493d 0475 b33d caf9 a43d
000003f0: 3d54 3ebd 6e0c f73b 8e61 93bc 3245 a1bd
0.14339429 -0.016279407 0.050654408 -0.026662229 0.124747574 0.04704793 0.013344073 0.021677393
0.09339565 0.0066851364 0.10184228 -0.038541857 -0.02704588 0.0066745686 -0.07777503 -0.030934718
0.08291039 0.07877567 0.06374348 0.12873974 -0.0074900324 0.058777343 0.010362831 0.024719384
-0.1333098 0.17969231 -0.032484915 -0.025419476 -0.025280626 0.02697099 0.027794788 0.05632173
-0.03146846 0.06101563 -0.051684238 0.05849819 0.046025492 0.0009719919 -0.03569843 -0.0002537226
-0.03295971 0.05911435 0.003173313 0.02204457 0.06420699 0.01615909 -0.034557663 -0.07350178
-0.00023069259 -0.020856062 0.010586845 0.051576067 -0.063653775 -0.061329715 -0.0075128316 -0.12757364
0.015170671 -0.021724703 0.032104123 -0.108482465 -0.036943354 0.0011760335 0.00768169 -0.034588747
-0.093518384 -0.021349082 -0.045960814 0.12044341 -0.03105363 0.03747056 0.047635768 0.023082668
0.0030083794 -0.0015489176 -0.119728014 0.04132532 0.006350466 -0.0051432406 0.03486491 0.009203698
-0.08151837 0.084198914 0.011256451 -0.020645928 -0.08880365 -0.11518723 0.0074509312 0.018555213
-0.07139377 0.042855278 0.017130984 -0.03156165 -0.17458645 -0.072665915 0.062114313 -0.012833305
-0.038880173 -0.032610506 0.035106912 0.019137708 -0.06880193 0.2100723 -0.0012221822 -0.010565588
-0.054638043 0.085397065 0.06548228 0.09213824 0.08775239 0.11998321 -0.026281733 -0.0024316043
0.10743722 -0.11624234 0.008142012 0.060346913 -0.081281476 0.082346514 0.06093762 -0.015175126
0.0121870795 0.104175486 -0.12760913 0.06723367 0.016010951 0.1183527 0.09840814 -0.0016121332
-0.07689635 -0.05836642 -0.01951751 -0.03900119 0.074869886 -0.055418704 0.074068576 0.06103523
0.075163424 0.024292048 -0.028711375 0.0053042285 -0.0016180733 0.04683757 0.0020832317 -0.021290885
0.06388574 0.0018216507 0.024403734 -0.03607759 0.08622952 -0.020945592 -0.058353506 -0.05271581
-0.100849144 -0.074991286 -0.021827796 0.014729467 -0.032645807 0.04440786 -0.088062964 -0.055696376
-0.0057000583 -0.032834455 -0.07464271 -0.0073018223 -0.0326059 0.08553185 0.053370018 -0.0009961247
0.076386966 -0.026978074 -0.0032578288 0.011821413 0.061230328 0.034814473 0.058461595 -0.039262664
0.0684138 -0.12579407 -0.04176954 0.02377094 -0.051585134 -0.023612028 0.07440099 -0.02385453
0.0025496967 -0.078231566 -0.00875178 0.018329835 0.08499989 -0.008493118 -0.044631694 -0.039623026
0.053050417 -0.06090452 -0.053653214 0.0025778415 -0.06931817 -0.08452328 0.073670484 -0.0805599
0.030197546 0.0070364326 0.027557014 -0.016356785 0.0061231577 0.006407851 -0.049441688 -0.038619965
0.062310398 -0.079205334 -0.073602535 0.059531134 -0.028614879 0.082787015 -0.051836535 -0.040081505
0.004254703 -0.055725824 0.021800816 -0.08528995 -0.075792976 0.07208119 0.060785234 -0.0730598
-0.05956066 -0.03688928 0.011936184 0.052413896 -0.07206984 0.03212125 0.081478424 -0.047402404
-0.07886909 -0.07513187 -0.04041424 -0.059289478 -0.071184464 -0.0056183278 0.0038890152 0.052822903
-0.08621425 0.002488716 0.011601107 -0.024799446 0.030551216 -0.018414253 -0.0112611875 0.051100627
-0.025536716 0.04921754 0.08762553 0.08055456 -0.046467055 0.0075393235 -0.017990854 -0.07874526

bias f4 [64]
00000000: 297e 4fbc 528e 97bd ec5f d13d a0d1 34bd
00000010: 4f97 cdbd 9e82 213d 7f8a 953c 009c 27bd
00000020: f711 a83c 327f 52bd a0da c03c 77c3 a43d
00000030: 7332 95bd 7ab7 0dbd 06cb 58bc e2e2 6fbd
00000040: ec6d ab3d 5c14 b83d 517f 99bd 9814 423d
00000050: b571 20bd fe1e 1a3b 7a7e 64bd e947 be3d
00000060: 07d1 203d 6d91 51bc 7486 b53c 798d 2e3d
00000070: c8f5 6cbc 2f6a 16bd aadb 503d 2fb0 963d
00000080: af31 383d 23eb 9e3b e2d1 9a3d 43d2 473d
00000090: 4548 143e 4fe2 293d 17f5 cb3b 2619 313c
000000a0: ea58 a43d 8c59 2cbd 828a 263d ffb9 bebd
000000b0: 6661 6b3d 69cc b7bd a6df 773d 2b3d 343c
000000c0: d0bb b93d 383c 27bb 1f58 0f3d dd37 423d
000000d0: 8abd c53d 6515 793d ef3a e73c 4f73 a63d
000000e0: f412 33bd 9b58 96bd 8196 d13d 92dc 393d
000000f0: 1254 95bd 38f8 b7bc c37c 45bd 149c 7dbd
-0.012664356 -0.07400192 0.10223374 -0.044145226 -0.100386254 0.039431207 0.018254517 -0.040920258
0.020516379 -0.051390834 0.023541749 0.080450945 -0.07285013 -0.034598805 -0.013231998 -0.05856598
0.08370575 0.08988258 -0.07494987 0.04738292 -0.03917094 0.0023517008 -0.05578468 0.092910595
0.039261844 -0.01279102 0.022158839 0.042615388 -0.014462896 -0.03672236 0.050990738 0.07357823
0.044969257 0.004849808 0.07559563 0.048784506 0.14480694 0.04147559 0.0062242853 0.0108092185
0.080247715 -0.042077586 0.040659435 -0.0931282 0.057465933 -0.08974535 0.060516022 0.011000912
0.090690255 -0.002551807 0.03499615 0.047416557 0.09655292 0.06081142 0.028226344 0.08127462
-0.043719247 -0.07341119 0.102337845 0.045376368 -0.07291426 -0.022457227 -0.048214685 -0.061916426

weight f4 [10, 64]
00000000: 2ef5 543e 5ff2 abbd 7de0 bb3e b190 b4be
00000010: 0a74 aabe da2d 383d aad8 c43e 7992 5dbd
00000020: 8f6f 363e 09c3 c9bd efe9 b83e e02d cf3e
00000030: af8c 333d dece 70bc f4e4 a5bd 8114 4d3c
00000040: a2ff 31be 4e17 d13d b4b6 cfbe e6bf 5d3e
00000050: f138 e63b 45ed abbe d336 72be 80d6 e8bd
00000060: b52d 873e 2446 eb3e 6864 5c3d 7051 9cbc
00000070: 8f11 95be cd81 9ebe fa9f b53d 4912 26be
00000080: 671b a0bd b672 00be cdbf 81be 2a59 04be
00000090: 1585 81be 3a22 85be 5a07 65be b649 32be
000000a0: 47f0 8e3d f46a 07bd a755 7dbd 6a67 8ebe
000000b0: bfdd f23d 34fa b53e dc02 163d aca9 843e
000000c0: 5c39 98bd 109e f03b e899 d03c d48a ddbd
000000d0: 2788 5f3d c407 51bd 6c11 2dbe 289e 47bd
000000e0: 24f1 8a3e 5d95 d8bd 8e51 f83e 1b98 f7bd
000000f0: 29be 893d e07d 8f3d 6e45 eebd fe70 79be
00000100: 1af0 8fbd 701e d739 ddbd 77bd 6848 be3e
00000110: 7de4 cc3e a2be 003e 312c 573b 3217 aabd
00000120: fa94 8c3d adbd 713d 5d86 9cbe 5682 43be
00000130: 0a29 753d 98ca e43d 5e6b 2b3d 4f80 60bd
00000140: 13e6 94bd 0c5c be3d cee0 2b3c 20f0 303e
00000150: 9f60 3ebe 124a b13d 232b e53e c4a0 a33d
00000160: 827f 3bbd 605a 35be 276e 09be 71c0 34be
00000170: 9728 2f3d 5bcf 0e3e a201 a4be e679 9f3e
00000180: af3a 113f 88a1 023f c631 98bc 03d3 023f
00000190: c0d9 07bf 7a27 3f3e 2a1e 7a3e 4026 973d
000001a0: 50d1 d5bd a6dc a9bd 977b 84be ec83 46be
000001b0: 8175 19bd 67ab f6bd c787 19be 7ca1 67bd
000001c0: 85f8 183d 648d 0cbe 0f1e e73d 26bd 68bd
000001d0: 5624 faba 2b36 eabd da61 b13c 2004 f83c
000001e0: edec 553e 6f06 a73d f703 93be dcb4 4dbd
000001f0: a95b 323e b0cf e2bd 1ed2 643e bf22 a0be
00000200: ef6d c1be 079f f03d ea06 1abc 8d48 b93e
00000210: 5657 893d 0012 9dbd f04f 2abe f639 333e
00000220: 9c1e 153f d1bf e3bd 62cd 1c3e 059f 383e
00000230: 90b6 c0bc 9739 9c3e bf93 01bd 2411 c03c
00000240: b2c2 4b3e 3d6a 9a3c b906 db3b c686 ca3e
00000250: cb5d 033f 84dd d93e fce8 dcbd d3b1 393e
00000260: edf9 b0bc 5eea 0f3e 583a 393e 9182 cd3d
00000270: 4aeb d5be 3659 8ebe 9be9 24be b961 6cbe
00000280: 0bec 87bc 148f 93be 2c35 81bd 2ab4 59be
00000290: ef78 48bf 1bf6 1fbe a1e7 6b3e c211 873e
000002a0: 9906 c13c 8c81 0dbe 8423 a73d 6e61 573e
000002b0: a041 be3c 32b9 97bc 26b2 cdbd 76d9 35be
000002c0: 95f4 133e ae44 ac3e daac 0dbe 9bab e73b
000002d0: 5c22 10be 39a9 503e 9a38 523e 97c7 cebc
000002e0: 6e38 0bbf 270c 163d bc91 513e 1f40 f33d
000002f0: e73d 303e aaf2 0f3e 39d9 3fbe 2a9c c03e
00000300: 2b37 cd3d 8ee3 f5bd 597a fbbe 4196 8f3e
00000310: 0d22 62be 2fc6 9abd b2d1 32bd bd3c 48be
00000320: c9f9 9abe ce21 ae3d 4e7e 2ebe d8a4 6d3e
00000330: cec3 d4be f651 87be d35a 373e 1809 b8bd
00000340: 0f82 53bd 1efd cabd 554d d43e 44ee 063d
00000350: e1bc a53e cb9e 4d3e 865d c23e 23c6 05bf
00000360: 4584 cebd 2e98 fabc 66de d53e 5718 cf3e
00000370: 32f4 26be 77ae f4bd 4633 68bd 1cd4 ecbe
00000380: 076c 9c3d afc7 133e d936 30be 6289 ce3e
00000390: 010a 513e 31aa 1cbe a365 b2be b1c5 96be
000003a0: 6067 23be 35f8 ab3c bd4a 6dbe bbf3 0bbf
000003b0: 43d1 7c3e df6a 523e 6a82 4f3e 2d16 a4be
000003c0: 3fe0 173e 8e3c a13d 51a2 31bd 8f91 e8bc
000003d0: e7a2 e43d f0c8 313e 7844 683e ed56 74bd
000003e0: 0b79 293e c6ab ef3d 4aae 5bbe 847f 9cbc
000003f0: 0ba1 e9be aa02 043d 61a8 463e a8a8 e83e
0.20796654 -0.08395838 0.36694708 -0.3526664 -0.33291656 0.044965602 0.38446552 -0.054094765
0.17815994 -0.09851653 0.36115977 0.40464687 0.04383534 -0.0146977585 -0.0810031 0.012517096
-0.17382672 0.10209523 -0.4056908 0.21655235 0.007025831 -0.3357946 -0.23653726 -0.11369038
0.2640206 0.4595195 0.053806692 -0.019081801 -0.2911496 -0.30958405 0.08868404 -0.16217913
-0.078177266 -0.12543759 -0.25341645 -0.12924638 -0.25296846 -0.26002675 -0.22366086 -0.17410931
0.06979423 -0.033060983 -0.061849263 -0.27813274 0.11858701 0.35542452 0.03662382 0.259107
-0.074328154 0.0073430613 0.025464013 -0.10817495 0.054573204 -0.051032797 -0.16901177 -0.048734814
0.271371 -0.10575364 0.4849972 -0.12089559 0.06725723 0.070064306 -0.116343364 -0.2435951
-0.070282176 0.00041030673 -0.060483802 0.37164617 0.40018073 0.1257272 0.0032832737 -0.083052054
0.068643525 0.05901878 -0.3057126 -0.19092688 0.05985359 0.11171454 0.04185044 -0.054809865
-0.07270446 0.092949 0.010490609 0.172791 -0.18591546 0.08656706 0.44759473 0.07989648
-0.045775898 -0.17710257 -0.13420926 -0.17651536 0.04276332 0.13946287 -0.32032496 0.3114769
0.5673017 0.5102773 -0.018578421 0.5110323 -0.53066635 0.18667403 0.24425569 0.073803425
-0.10440314 -0.082940385 -0.25875542 -0.19386262 -0.037465576 -0.12044411 -0.14993201 -0.056550488
0.03734638 -0.13725811 0.1128503 -0.05682101 -0.0019084315 -0.11436113 0.021653105 0.030275404
0.20891161 0.08155524 -0.28713962 -0.05022131 0.17417778 -0.110747695 0.22345778 -0.3127651
-0.37779185 0.11749082 -0.0094010625 0.36188164 0.06706111 -0.07669449 -0.16632056 0.17502579
0.5824983 -0.111205705 0.15312722 0.18029411 -0.023524553 0.30512688 -0.031635042 0.023445673
0.19898489 0.018849486 0.006684151 0.3955595 0.5131499 0.42551816 -0.10786626 0.18134241
-0.021603549 0.14054248 0.18088663 0.10034669 -0.41781074 -0.27802438 -0.16104738 -0.23084153
-0.016592046 -0.28820097 -0.0630897 -0.21260133 -0.7830953 -0.15621226 0.23037578 0.26380736
0.023562716 -0.1381895 0.08161071 0.2103326 0.023224652 -0.018520925 -0.10043745 -0.17758736
0.1444877 0.33646148 -0.13835469 0.0070700175 -0.14075607 0.20377053 0.20529404 -0.025241656
-0.5438298 0.036632683 0.2046575 0.118774645 0.17211114 0.14057413 -0.18735208 0.37619144
0.10020288 -0.12006293 -0.4911678 0.28044322 -0.22083302 -0.07557332 -0.043657012 -0.1955442
-0.30268696 0.085025415 -0.17040369 0.23207414 -0.41555637 -0.2642972 0.1790574 -0.089861095
-0.051637705 -0.099115595 0.4146525 0.03294207 0.32370666 0.20080106 0.37961978 -0.5225546
-0.10083822 -0.030590143 0.4177124 0.40448257 -0.1630409 -0.11947339 -0.056689523 -0.46255577
0.07637792 0.14431642 -0.17208423 0.4033919 0.20413972 -0.15299298 -0.34843168 -0.29447702
-0.15957403 0.020992378 -0.23173042 -0.5466878 0.24689202 0.2054858 0.20264593 -0.3204817
0.14831637 0.07872878 -0.043367688 -0.02838972 0.11163884 0.17361808 0.22682369 -0.05965321
0.1655008 0.11702685 -0.21453205 -0.019103773 -0.4563068 0.032229103 0.19400169 0.45441175

bias f4 [10]
00000000: ac62 80bd 67c5 983c 3bb7 cd3d 2d6f 57bd
00000010: 5f12 babd 6f90 acbd e7f1 d1bd 03fb f6bd
00000020: ff9b e33d 5e97 a7bb
-0.0626882 0.018648816 0.10044714 -0.05259626 -0.09085535 -0.08425986 -0.10251217 -0.120595954
0.11113738 -0.00511448
